Lhy_Machine_Learning/2022 ML/01 Introductionof Deep Learning/models/model.ckpt (torch, 10612 bytes, 5 tensors)

layers.0.weight f4 [16, 117]
00000000: 3962 e6bd 7976 67bd 6919 65bd 6981 c9bc
00000010: 141e 9fbd c1cb 903d f29a 663d 3e71 2cbd
00000020: 0d93 2cbc 1ab1 813c 9d84 d6bc 70d3 b5bd
00000030: bae1 9dbd 6055 a6bd 6efb aebd ff54 a2bc
00000040: 9ca1 7ebd 7b77 913d 4ed5 203d 0582 b03a
00000050: 10f3 323c abb7 5b3d 1f4e c3bb 73fe 03bd
00000060: 0787 013d 056a b2bb bda9 633d 717a a6bc
00000070: 3838 afbd 3054 86bd 3568 bbbd 69af 8fbd
00000080: 9b1a d13c ac87 8c3d cf41 58bc 9683 83bd
00000090: b2d4 463d b0f3 6abd 112b 443d 7d74 babd
000000a0: b97f b73c 8693 92bd 2e0a 873d 40f3 193d
000000b0: 6afc 973d a705 18bc 44e7 8b3d af43 7c3d
000000c0: 35cf 123d bf62 673d fd10 b9bc aa55 bb3d
000000d0: f51e 56bd eff6 c93c 691d ed3c df36 9b3d
000000e0: db7a 92bd 6a34 64bd 1654 833d c53e 9dbb
000000f0: 4940 95bd 0e75 9b3d ab67 6cbc 308f 49bd
00000100: 2e31 613c 5f41 a13d aae4 babc d9b7 983d
00000110: 38de 2f3d fea1 c23c 192d 523d eec0 fcbb
00000120: ee9d 96bd 2c0d 9739 5bc8 25bd 5360 a5bd
00000130: 80f3 a9bd e206 c73c 5c74 91bc 0f44 0f3d
00000140: 5ad1 233c 23cf dfbc f205 413d 1650 233b
00000150: 7bb7 bfbd 9791 4fbd 99f8 3b3c fb65 8c3c
00000160: ddbe 553d 54c8 0cbd 4544 aa3b de7e 20bd
00000170: 8b79 ebbc 047d 14bd 90f9 b3bd 4ac3 873a
00000180: 8b47 a23d d2de 37bd 9008 1e3d 1f39 813d
00000190: 661c 8ebd f11d a8ba b9bc ce3b 11ea a8bd
000001a0: de49 083d f398 35bd aba6 c2bc 9961 ae3c
000001b0: 7486 5a3d 2aa1 ba3d ff04 673d 8c1f 4c3d
000001c0: 4289 6bbd a59c 9abd 495d 9dbd bc40 bcbd
000001d0: c7f3 753d b320 2cbe b6d6 003b 31af 613d
000001e0: 04c0 19bd 83cc a5bd e834 a7bd d8f0 b63d
000001f0: 3901 9f3d 200d b6bd e223 9c3d 8178 a5bd
00000200: 35b0 453d 8d73 243d 0a8c 33bd 09ea 16bd
00000210: 3f8c 4bbd 19d5 47bd 65eb b73d df73 cdbb
00000220: 63fe 65bd 5937 23bd 2d48 b53c 79f3 a2bb
00000230: 5364 783d 6dfe a8bd bf7f d4bc 5c41 883b
00000240: 29d8 2c3c 03fe c8bc dcfe 773d 5d95 1f3d
00000250: 7059 8ebd 316e b43d 3e49 6ebd 30c2 343d
00000260: 22eb b1bc 0e82 8e3c 1fc1 d93c 836a 063b
00000270: 427c ed3c 1425 2fbd 828e 8e3d fef1 debc
00000280: fc4d 983d 4af4 b9bd 1976 5b3d bdb8 9dbd
00000290: 40ed 803c 82c4 acbd 74f0 ba3d 8b81 bb3c
000002a0: fd2e f23a cf03 5abc 0ae3 803d 7c19 763d
000002b0: f0a8 42bd 0616 a1bc 70b3 d33c 08b6 323d
000002c0: 4e37 debc a3ff 8ebd ae2b 99bd 0c8d 84bd
000002d0: d7bf 323d 2688 b8bd cdb3 8bbd 1c5f b3bd
000002e0: 826a 49bc c735 093d a561 7a3c 7f7c 50bd
000002f0: d9b0 f23c e2cc ee36 43e1 a3bd 7231 983c
00000300: 0625 f13c 4404 0fbd db88 65bd 21f9 a03b
00000310: 99cd 363c a66f 973b 62c7 5abc 9546 b33d
00000320: bd82 dbbc 095d 213d edfe 85bd 9def 6e3d
00000330: baf2 95bd 90e1 cb3c 4d21 1d3d 0da9 d43c
00000340: 1587 b63c 31c0 b03c a9da 1dbd 5ebd a03d
00000350: b433 043d fc4c 823c 33d6 bbbd 0f11 7f3d
00000360: 448b 4c3d ae28 843c a4ee 42bd 962f 223c
00000370: 2506 2c3d 574a 4cbd 72bf 91bb db5b 903d
00000380: bd0c 91bd e547 92bd 0c41 b6bd 9baf a93d
00000390: db5a 89bd 94b1 8ebd c765 8bbd fc04 92bd
000003a0: 5bb4 bfbd a366 433d bf69 9b3b be09 d63c
000003b0: ba91 e4bc e0a4 243d d927 e43c eacb 993d
000003c0: f374 0fbc cf72 28bd fc29 72bd f8e7 393d
000003d0: 433b 96bd 9b95 03bd b46e 73bd b965 a9bd
000003e0: 67bf 8dbd 0e9a 1dbd ab7a b7bd 6598 893d
000003f0: 2ab5 55bd 5ceb 24bb 8d5a 93bc 5359 94bd
-0.11249203 -0.05650947 -0.055932436 -0.02459784 -0.07769409 0.07070113 0.05630011 -0.042100184
-0.0105331065 0.015831519 -0.026186282 -0.08878219 -0.077090696 -0.08121753 -0.0854405 -0.01981592
-0.06216584 0.07102867 0.039265923 0.0013466483 0.010922208 0.053641956 -0.0059602405 -0.032225084
0.031622913 -0.0054447674 0.055581797 -0.020322056 -0.08555645 -0.06559026 -0.09150735 -0.07015879
0.025525382 0.06861815 -0.013199284 -0.064215824 0.048542686 -0.057361305 0.047892634 -0.091042496
0.02239977 -0.07157044 0.065937385 0.037585497 0.07421191 -0.009278691 0.0683122 0.061587986
0.03584214 0.056490656 -0.022591108 0.091471985 -0.052275617 0.02465388 0.028944688 0.07578825
-0.07152339 -0.05571405 0.064125225 -0.0047987425 -0.07287652 0.07590686 -0.014429013 -0.04920882
0.0137446355 0.07873797 -0.022814114 0.07456941 0.042936534 0.023758885 0.05131254 -0.0077134287
-0.073543414 0.00028810778 -0.040474277 -0.08075013 -0.08298397 0.024295274 -0.01775568 0.034977015
0.009998644 -0.02732045 0.04712481 0.002491956 -0.09361168 -0.050675955 0.0114728445 0.017138472
0.052183975 -0.034370735 0.0051961266 -0.03918349 -0.02874448 -0.036252037 -0.08787835 0.0010357883
0.07923802 -0.044890232 0.038582385 0.06309723 -0.0693901 -0.0012826306 0.0063091186 -0.082477696
0.03327357 -0.044335317 -0.023761114 0.021286773 0.05335088 0.09112771 0.05640125 0.049834773
-0.057503946 -0.07549409 -0.07683808 -0.091920346 0.060046937 -0.16809349 0.0019659228 0.055098716
-0.037536636 -0.08095648 -0.08164388 0.08932656 0.07763905 -0.08889222 0.076240316 -0.08079625
0.048263747 0.04014926 -0.043834724 -0.036844287 -0.049694296 -0.04878721 0.08980445 -0.0062699164
-0.056150805 -0.039847706 0.022129143 -0.004972872 0.06064255 -0.08251653 -0.02593982 0.004158182
0.0105495835 -0.024535185 0.060545787 0.038960803 -0.069506526 0.0881008 -0.058175318 0.044130504
-0.021718565 0.017396 0.026581345 0.0020510263 0.028989915 -0.04275997 0.06960775 -0.027215
0.07436749 -0.090797976 0.053579424 -0.07701252 0.01573813 -0.084359184 0.09127894 0.02288892
0.0018477138 -0.013306572 0.06293304 0.060082898 -0.047524393 -0.019663822 0.025842398 0.04363063
-0.02712598 -0.069823526 -0.07479034 -0.06472215 0.043639984 -0.09010343 -0.06821404 -0.08758375
-0.01229346 0.03349855 0.015282069 -0.05089998 0.029625343 7.116804e-06 -0.0800195 0.018578265
0.0294366 -0.034916177 -0.05603872 0.004912511 0.011157417 0.004621464 -0.013353201 0.08753697
-0.02679574 0.039395366 -0.06542764 0.05833398 -0.07321687 0.02488783 0.038361836 0.025959516
0.022281209 0.021576019 -0.03853861 0.07848619 0.03227587 0.01590585 -0.09171715 0.062272128
0.0499375 0.016132679 -0.047590867 0.009899041 0.041998047 -0.049875583 -0.004447871 0.0704877
-0.07082508 -0.07142619 -0.088991255 0.08285447 -0.067067824 -0.06967464 -0.06806522 -0.07129857
-0.09360572 0.047705304 0.0047428305 0.026127692 -0.02790152 0.0401963 0.027851032 0.07509597
-0.00875591 -0.041125115 -0.05912207 0.04538724 -0.07335522 -0.032125097 -0.059431747 -0.08271355
-0.06921273 -0.038476996 -0.08958944 0.0671852 -0.052174725 -0.00251647 -0.017987514 -0.072436

layers.0.bias f4 [16]
00000000: fbb8 94bd 1417 de3c c82d 3e3c 7e14 09bc
00000010: 87d0 2fbd 6003 bb3d 2b5f 063b 0868 7b3d
00000020: 6aaf a1bd dc8f 6cbc 7644 813c 8eaa 823d
00000030: 49ca b43d 41c4 af3d 98d1 233d aa4c 273d
-0.07261845 0.027110614 0.011607595 -0.008366702 -0.042923477 0.09131503 0.0020503502 0.06137851
-0.07894786 -0.014438596 0.015779715 0.06380187 0.08827645 0.08582354 0.039994806 0.040844597

layers.2.weight f4 [8, 16]
00000000: 34f4 543e 3019 debc 50c4 403e d643 31be
00000010: 3032 cdbd e07f f4bc 5a0b 28be 8605 48be
00000020: 681c 55bd 9484 903d 6407 333e 209b 93bd
00000030: 80e1 d93d acd6 64be 9474 02be 1677 69be
00000040: bda5 3b3d a57a 4b3e c1ac 4f3e 6a59 8a3d
00000050: bafd 05bd 72ba 6cbe a92c f83d d281 2c3e
00000060: 6038 153e bde5 c6bd ff3e 293e 3492 1cbe
00000070: e21e 6abe 5419 703e 3f51 203e 45e7 cd3e
00000080: 8ef5 183e ed7d 0e3e 4e9e 2f3e eb4a 0f3e
00000090: 18f4 74be cf83 01be d4f6 58be ed7e 7e3d
000000a0: c99c df3d 666e 85bd 324d 673e 8018 d73c
000000b0: 5aa6 073e 1229 3abe 67d7 8abd e029 42be
000000c0: 34bc 37be 68c4 94bd 7c5a f63d 7839 d93d
000000d0: f85e fdbd 18c4 d0bd 966e 4a3e 3071 323d
000000e0: 6891 35bd e054 cf3c b4c2 64be 1c69 55be
000000f0: 002e c4bb d0d3 553d 183d 5c3e 108e 3bbe
00000100: f715 e9bd 6826 e93d 8401 0fbe 12fc 41bd
00000110: 7946 08be 737d 7b3c 9484 ed3d b7f6 cd3c
00000120: faa6 513e 14d1 78be e048 49bc e403 6b3e
00000130: 5e7c 743e 52ec 483e f7e1 cc3d a618 a1be
00000140: 9a41 103e bf71 83bc b518 c7bd 3523 fcbd
00000150: 1b97 543d 28d2 1ebe 7775 aabb 0903 6ebe
00000160: 6631 e9bd 77ff 353d 5887 453e 690f 2b3d
00000170: 0aac 2b3e 80ce 1a3b abd7 c23d 05e2 99bd
00000180: 99ed 14be 9bfa 64bd 003a a5bc 16d0 5dbe
00000190: f441 81bd 960d 98bd f743 67bd 7c27 883d
000001a0: a066 993c 2f3a d9bb 6931 af3d c387 6d3e
000001b0: 581d 583e 02c3 123e de9f 353e 77d8 05be
000001c0: e184 58be 3bb7 a2bd 684e 47bd b407 3c3e
000001d0: e405 58be 3889 a33c f040 c9bc 81ee f1bd
000001e0: cb21 b7bd f1d9 44be f064 e63b b22d 673e
000001f0: 8699 44be 5cc2 863d 7b26 ecbc 4e5a 2abc
0.20796281 -0.02711162 0.18824887 -0.17311034 -0.10019338 -0.029846132 -0.1641058 -0.19533357
-0.052029043 0.07056537 0.17483288 -0.07207322 0.10638714 -0.22347516 -0.12739784 -0.22799334
0.045812357 0.19871004 0.20280744 0.06755336 -0.032712676 -0.23117998 0.12117893 0.16846398
0.14572287 -0.09711788 0.16527937 -0.15290147 -0.22863343 0.23447162 0.15655993 0.40215507
0.14937422 0.13915224 0.17150232 0.13993423 -0.2392124 -0.12647937 -0.21187907 0.062132765
0.10918576 -0.065151975 0.22588041 0.0262568 0.13247052 -0.1817973 -0.06779366 -0.18961287
-0.17942888 -0.07264024 0.12028977 0.106066644 -0.123716295 -0.10193652 0.19768748 0.043564975
-0.044328123 0.025309026 -0.22339898 -0.20840877 -0.005986929 0.052203953 0.2150768 -0.18315911
-0.113811426 0.113842785 -0.13965422 -0.047359534 -0.13308133 0.015349734 0.11597553 0.025142057
0.20473853 -0.24298507 -0.012285441 0.22950703 0.23875567 0.19621399 0.10004037 -0.31464118
0.14087525 -0.01604545 -0.09721509 -0.12311403 0.051901918 -0.15509856 -0.005201991 -0.23243345
-0.11386375 0.044433083 0.19289911 0.041762743 0.16764846 0.0023621619 0.09513792 -0.07513813
-0.14543761 -0.05590306 -0.020169258 -0.2166141 -0.06311408 -0.07424466 -0.0564613 0.06648156
0.018725693 -0.0066292505 0.08554346 0.2319632 0.21104944 0.14332202 0.17736766 -0.13070856
-0.2114444 -0.07945105 -0.04865876 0.18362314 -0.21095997 0.019962892 -0.024567097 -0.11813069
-0.08941992 -0.19223763 0.0070310757 0.22576025 -0.1919919 0.0658004 -0.028826943 -0.010397507

layers.2.bias f4 [8]
00000000: 6871 37be fc9d aa3c 19d8 84bd aec2 373e
00000010: 31bd 153e 0ec0 743d 2acb 73bb dcb0 0bbe
-0.17914355 0.020827286 -0.0648653 0.17945358 0.14622952 0.05975347 -0.0037199953 -0.13641685

layers.4.weight f4 [1, 8]
00000000: 5bbe 24be d09c d73e 1a40 2c3e 68e4 5fbd
00000010: 8ddd 98bb 1c7f b53c 89d8 babd e4e8 d4bd
-0.1608824 0.42111826 0.16821328 -0.054661185 -0.004665083 0.022155337 -0.09123332 -0.10395983
