Lhy_Machine_Learning/2023 ML/作业/HW1 Regression/models/model.ckpt (torch, 8327 bytes, 5 tensors)

layers.0.weight f4 [16, 88]
000000 2d db 00 be 81 25 cf 3d 90 27 90 3d db 27 68 bb
       -0.12583609 0.10114575 0.07038796 -0.0035424146
000010 d3 6c ba 3d ac 80 b0 3c 25 db ce bc 4b cd 20 3d
       0.09102788 0.02154573 -0.02525098 0.039258283
000020 37 b3 48 3d d6 f1 77 3c 80 ab a7 bc 9a 5b 9b bc
       0.048999038 0.015133342 -0.02046752 -0.018964577
000030 c9 84 9c bc 7f 64 87 bc 3a 4c c3 3c 83 b1 7b 3c
       -0.019106286 -0.016527412 0.023840059 0.015362146
000040 f3 d7 63 3d 56 b7 c6 3c be 1a d4 3d cc de 9d 3d
       0.055625867 0.024257343 0.10356663 0.07708511
000050 c2 24 9f 3d c1 9f 88 bd fc 2c 9a 3d 21 b7 ad 3d
       0.07770683 -0.06671096 0.07528111 0.08482195
000060 1d 01 8f 3d 13 8a 47 bd d5 6c 72 3d 59 50 a7 3d
       0.06982634 -0.048715662 0.05918582 0.08169622
000070 ae d2 d2 bd e3 54 98 3d a6 06 83 3d bb ee c0 bd
       -0.1029409 0.07438066 0.063977525 -0.09420534
000080 cb d3 64 bc f9 a3 08 bd 17 58 89 bc 5c 8c 32 3d
       -0.013966511 -0.0333595 -0.016765637 0.04359089
000090 5b 71 e9 bc e4 bb ce bd d6 03 14 3d b6 cb 5d 3d
       -0.028496435 -0.10094431 0.03613647 0.054149352
0000a0 4c 24 a7 bc ad 57 ec 3d ff a7 f4 bc c0 ac 9b bd
       -0.02040305 0.1154016 -0.029865263 -0.07601309
0000b0 e0 30 90 bd b9 56 8d bd b6 0e 6d 3d e0 e6 3d bd
       -0.07040572 -0.06901307 0.057875358 -0.046362758
0000c0 4e ea cd 3c 1e e0 b6 bd 3b d6 96 bd 71 75 a5 3d
       0.02513614 -0.08929466 -0.0736508 0.08079041
0000d0 87 56 ab 3c b2 43 3e bd 9c 19 59 3d 57 9d a5 bd
       0.020915283 -0.046451278 0.05300294 -0.08086651
0000e0 17 55 34 bc 14 af 9d bd 12 7e e1 3c f3 01 9d bb
       -0.011006615 -0.07699409 0.027525935 -0.004791492
0000f0 df 1b ad bd f8 c8 9f bd 44 4a ab bc 41 d3 10 3d
       -0.084525816 -0.078020036 -0.020909436 0.035357717
000100 4a 80 8a bd b1 55 c8 bd ee c3 19 3d d4 90 36 3c
       -0.067627504 -0.09781969 0.03754037 0.011142928
000110 88 e4 d8 3d 09 a1 b1 3d 1d 29 6e 3c 97 40 80 3d
       0.10590464 0.08673293 0.014536169 0.062623195
000120 91 c9 b2 bd bc 04 ad bd 1e a1 8e 3d e9 79 d0 3d
       -0.08729852 -0.08448169 0.069643244 0.101795025
000130 d5 2a 96 3d 5c 27 db bc 26 3a 8f 3d 69 13 d5 bd
       0.07332388 -0.026752166 0.06993513 -0.10404093
000140 dd e9 4a 3d 7f 95 f1 bb 09 60 5c 3d 0e 4a 96 3d
       0.049539436 -0.0073725577 0.053802524 0.073383436
000150 a4 c3 a6 3d 01 36 b6 3d c6 02 83 3d 6b f6 d1 bc
       0.08142784 0.08897019 0.06397013 -0.025630197
000160 a0 61 59 bb 28 73 b8 bc c0 0f 96 3d 80 0f 95 3b
       -0.0033169761 -0.022515848 0.07327223 0.004548967
000170 fa 65 54 bd 42 64 2e bd c8 63 61 bc b0 db 30 3d
       -0.051855065 -0.042576082 -0.0137567 0.04317826
000180 6c 63 af 3d 60 19 67 3c 2d 18 99 bd c0 4e 6c 3d
       0.08563885 0.014105171 -0.07475314 0.05769229
000190 2f 13 4c bd 04 a9 78 3d d8 38 6a 3d a0 1e e9 3b
       -0.049822982 0.06070806 0.057183117 0.0071142465
0001a0 60 0e cb bb 98 e4 d8 3c 88 b0 5a 3d 56 33 b2 3d
       -0.006196782 0.02647619 0.05339101 0.08701198
0001b0 24 5f 2c bd d0 53 ad 3d 30 ff 04 3c c8 59 f1 3c
       -0.04208292 0.084632516 0.008117482 0.029461756
0001c0 b8 fd 9b bd 48 47 27 3c 4e 9f c8 3d 10 dc 4c 3d
       -0.076167524 0.010209866 0.0979601 0.050014555
0001d0 80 96 98 3b 24 b5 ad bc f8 40 d3 3c 2a 13 ac 3d
       0.004656613 -0.021204539 0.025787815 0.08402093
0001e0 1a 17 d1 3d 00 fc e1 bb 00 98 ad 3c b0 2b 39 bc
       0.102094844 -0.006896496 0.021190643 -0.01130192
0001f0 14 4b 6c 3d bb fc 4c bd fe ae 87 3d 58 b4 99 3c
       0.057688788 -0.05004571 0.06625174 0.018762752
000200 00 16 9b bb 00 1c c4 3c 66 94 99 3d 90 6e 0d bd
       -0.004732847 0.023939133 0.07499008 -0.03452927
000210 3f 14 d8 bd 20 39 60 bb 4b 21 a8 bd 3e 50 8f 3d
       -0.10550737 -0.0034213737 -0.08209475 0.06997727
000220 3e 2a d9 3d 98 30 ef 3c 8e 07 d8 3d ec bd 8e 3d
       0.1060376 0.029197976 0.10548316 0.069698185
000230 ca d4 2e bd fe e1 b0 3d 2e b9 c2 bd 08 7c af bd
       -0.0426834 0.086368546 -0.095079765 -0.08568579
000240 73 a2 69 bd d8 91 2d bd 20 b5 68 3c 14 a6 26 3d
       -0.05703969 -0.042375416 0.01420334 0.04068573
000250 e8 b5 d8 3d 30 c0 e3 bb a6 b0 72 bd a4 59 06 3d
       0.10581571 -0.006950401 -0.059250496 0.03280033
000260 58 ca 1e 3c 22 d2 89 bd 50 ca 33 bc 62 db 2b bd
       0.009691797 -0.06729533 -0.010973528 -0.041957267
000270 4c c5 63 3d c0 a1 68 3d d0 67 5d 3d b8 d5 43 3d
       0.05560808 0.05679488 0.05405408 0.04781124
000280 d8 1b d2 bc 8e fb b4 3d fc fa 1c 3d 50 1b 11 3d
       -0.025648043 0.08837043 0.038325295 0.035426438
000290 c4 88 99 bd 20 da cd bc 68 25 3c 3d 94 f1 bc 3d
       -0.07496789 -0.025128424 0.04593411 0.09225765
0002a0 a6 21 d7 bd ec a9 f6 bc b8 60 ae bc 98 37 1c bd
       -0.10504465 -0.030110322 -0.021286353 -0.038138956
0002b0 a8 36 27 bd a8 79 2d bd e8 b3 64 3c 62 df 84 3d
       -0.04082361 -0.04235235 0.013958909 0.064879194
0002c0 e8 67 18 bc 5a a0 4e 3d f8 b3 39 3c fd 94 42 ba
       -0.009302117 0.050445892 0.011334412 -0.00074227137
0002d0 2f c5 68 3d 0b b7 31 3c e7 28 7b 3d f3 8f 08 bd
       0.056828674 0.0108468635 0.061318304 -0.033340406
0002e0 1a 6d 7d bd ea 63 9c 3c 23 71 9b 3d 08 60 8f bd
       -0.061871625 0.019090611 0.075899385 -0.070007384
0002f0 87 ae 17 bd 6b 41 dd bc cf 23 8b bd 3e 01 a4 3d
       -0.037031677 -0.027008733 -0.06793939 0.080080494
000300 c6 2f 1c bd f1 dc 09 bd e0 0f 67 3d c6 dc 30 3d
       -0.038131498 -0.03365797 0.056411624 0.043179296
000310 eb 39 a3 bc dc b9 24 bd d7 67 a6 3d 1b 96 94 3d
       -0.019925078 -0.04021631 0.08125275 0.07255193
000320 92 91 a2 3d 16 38 aa 3d d9 dd c7 3d bf 25 6e 3b
       0.079379216 0.08311479 0.09759111 0.0036338416
000330 0f 1c 8e ba 10 03 84 bd 09 40 ae 3d 17 12 6d 3d
       -0.0010842102 -0.064458966 0.085083075 0.05787858
000340 b6 9c 67 3b 29 52 ae 3d c4 0b bd bd 92 97 f1 3d
       0.003534121 0.085117646 -0.0923076 0.11796488
000350 8b ba 98 bc 68 ba 27 bd 8f 9a 0a bd 20 7d ca 3d
       -0.018643638 -0.040949255 -0.033838805 0.09887147
000360 29 94 15 3d d9 f2 cd bd b1 9d 0d bd ad e9 da 3c
       0.03651825 -0.10056085 -0.034574214 0.026722753
000370 62 7b 51 3d 7f 7f 55 3d fd fa 1e bd 00 5b fa 3d
       0.051143058 0.052123543 -0.03881358 0.12224388
000380 85 38 3f 3d 53 64 13 3e 1b 2a 61 3d 15 7b 68 bd
       0.04668476 0.1439374 0.054971796 -0.056758005
000390 3c 3e 53 3f 37 81 b3 3d d3 70 83 3d 17 40 aa 3d
       0.8251684 0.0876488 0.06418004 0.083130054
0003a0 99 1c b9 bd 4b 2a 89 3c d5 a0 9a 3b d5 ad ae bd
       -0.09038658 0.0167438 0.0047188797 -0.085292496
0003b0 30 4c 23 bd f6 88 11 bd ce bd 07 3d 0f f2 ca 3d
       -0.03986758 -0.035531007 0.033139996 0.0990945
0003c0 a7 24 b4 3c 87 d0 87 3d c3 f9 e0 3b 29 9f f0 3d
       0.021990133 0.0663157 0.0068657114 0.117491074
0003d0 25 ec b3 bd c0 1e e9 3b aa 09 46 3f bb 91 e0 3c
       -0.08785275 0.0071142614 0.77358496 0.02741324
0003e0 0b 9c 3d bd 98 6d 70 bc d5 e0 db bc c3 73 46 3c
       -0.046291392 -0.014674567 -0.026840607 0.012112561
0003f0 88 2f 13 3d 50 9f 90 bd 7b 34 98 3c e9 77 a4 3d
       0.035934 -0.070616364 0.018579712 0.080306835

layers.0.bias f4 [16]
000000 ab 4c d9 3d 00 07 41 3b 6a 1e 05 bd d2 dc 70 bd
       0.106103264 0.0029453635 -0.03249971 -0.05880434
000010 62 93 b9 bd e3 78 7d 3d a3 ff 48 3d 75 eb cc 3c
       -0.09061314 0.061882865 0.04907192 0.025014618
000020 b0 8e b9 3d b9 9c 09 3a 6c 88 a6 bd e8 44 85 bc
       0.090604186 0.0005249489 -0.08131489 -0.016268209
000030 3d a0 42 3d b8 aa e4 3c 99 5f a7 3c 59 98 b0 3d
       0.047516096 0.027913436 0.020431327 0.08622808

layers.2.weight f4 [8, 16]
000000 12 98 0d be 4c 46 b9 3d f0 c2 f3 bd 7c 5c 78 3e
       -0.13827541 0.09046611 -0.11902416 0.2425403
000010 16 46 6c 3e 28 02 34 be 28 4d 40 bd 20 60 ed bd
       0.2307361 -0.17578948 -0.046948582 -0.115906
000020 88 bf 84 bd d8 dc 38 be b8 7c 71 3e 50 4f e5 3c
       -0.06481844 -0.18052995 0.23582733 0.02799192
000030 aa 13 4a 3e 94 c1 1c be 80 19 e0 bc 40 40 9a bc
       0.19734064 -0.15308219 -0.02735591 -0.018829465
000040 0e 28 83 3d 50 99 d7 3d 6f fc a6 be dc 41 76 be
       0.06404124 0.10527289 -0.32614467 -0.24048561
000050 0c c7 99 3c 34 4f e8 3d 54 c8 c9 bd ff b6 76 be
       0.01877167 0.11343232 -0.09852663 -0.24093245
000060 eb 03 37 bd 9e 4c 7b be 6c 2e 50 be e6 d5 7c 3e
       -0.04468147 -0.24540946 -0.20330209 0.24690971
000070 45 4e 54 3e 6d 73 23 be b0 c4 55 be d9 13 15 3d
       0.20732982 -0.15962 -0.20875812 0.03639588
000080 78 b7 85 be be bf 3a 3e 89 5c 30 be 40 71 f5 3b
       -0.26116538 0.18237206 -0.172228 0.007490307
000090 2d 77 c3 bd 41 9e 2e bd a6 4c ed bd 7a 0a 02 3e
       -0.09544215 -0.04263139 -0.11586885 0.12699309
0000a0 6d d5 0b be e0 b8 43 be bf e1 22 be 93 73 54 3c
       -0.13655634 -0.19113493 -0.15906428 0.012967008
0000b0 42 28 01 3c dc bc b6 3d d0 ad 13 3d b5 b8 73 be
       0.007883133 0.08922741 0.036054432 -0.23800929
0000c0 a6 41 2c 3e ac a8 1f 3e 26 2a 23 3d 96 f8 0b 3e
       0.16821918 0.15591687 0.039835118 0.13669047
0000d0 1e 34 b2 bc 18 5f 65 3e f1 93 1f be 46 85 38 3e
       -0.021753367 0.22399557 -0.15583779 0.1801959
0000e0 2f 9b 8c be 82 5b b7 bd 6c 6c 51 be 41 30 7a be
       -0.27462146 -0.089530006 -0.20451516 -0.2443247
0000f0 ea ff c0 3d 9e ca be be 7d e6 fb 3d 97 60 8d 3d
       0.09423812 -0.3726396 0.122998215 0.06903189
000100 f2 5b d6 bd 38 a3 ef 3d 8d 45 d9 3d 14 b7 be bd
       -0.10466756 0.117010534 0.10608969 -0.09312263
000110 69 0a 82 3e e2 c2 2e 3d fa ef 9a be 51 0a 10 be
       0.25398567 0.042666323 -0.30261213 -0.14066435
000120 ce ab c0 3e ab bd 81 3d 54 15 28 be 59 8d d7 3e
       0.37631077 0.063350044 -0.16414386 0.42100027
000130 db 4d a9 3d 39 0d 8a 3d fb e3 81 3e 56 2a 34 3d
       0.08266803 0.06740803 0.25369248 0.043985687
000140 c4 49 cd 3c 30 47 fb bd fb 13 8f bc 44 53 45 3e
       0.025059588 -0.12269437 -0.017465582 0.19270045
000150 b7 df 63 be af 76 d1 bd d6 02 c2 bd e1 42 fa bd
       -0.22253309 -0.10227715 -0.09473197 -0.122197874
000160 04 ae 86 bd 04 c0 e0 bc e1 11 3e 3e a2 b5 93 3a
       -0.065761596 -0.02743531 0.18561508 0.0011269341
000170 51 27 df 3c b9 64 b7 bc a8 ab 4e 3d 3b 8c 54 be
       0.027240427 -0.022386895 0.050456673 -0.20756619
000180 37 ec 0c be d0 6f 8c bd fb b9 43 be 80 04 0f bd
       -0.13761984 -0.06857264 -0.19113915 -0.0349164
000190 56 db 4b bd 54 7d 0c be 03 35 cf 3d e0 55 36 bd
       -0.049769722 -0.13719684 0.10117533 -0.04451549
0001a0 9e 12 1e 3d 1d 4a 66 3e 4d 16 ab 3c 59 79 45 3e
       0.038591973 0.2248921 0.020884657 0.19284572
0001b0 34 21 ea bd 8a 14 e8 3c 06 ee 11 3e 92 c7 d7 3d
       -0.11432114 0.028330106 0.14250955 0.10536112
0001c0 12 5b 41 be cc 68 2d 3e a5 7e 33 3e d0 e9 6d 3d
       -0.18882397 0.16934508 0.1752878 0.05808431
0001d0 ce 6e 4f 3e 08 89 49 3e ef 25 f2 3d bf 52 3a be
       0.20257112 0.1968118 0.118236415 -0.18195628
0001e0 0d 74 b1 3d da e6 de 3d 21 d4 47 3d 08 e0 6f 3e
       0.08664713 0.10883875 0.048786286 0.23425305
0001f0 94 ce 06 be c0 21 1f be 4e f8 87 3e 46 9a 29 be
       -0.13164741 -0.15540218 0.2655663 -0.16562757

layers.2.bias f4 [8]
000000 9c 33 fa 3d 25 f9 4c bd 5d 80 5d be 79 40 58 3c
       0.12216875 -0.05004229 -0.21630998 0.013198965
000010 6d cb 6a be c6 8f b1 3d 67 aa 03 bd ab 4e 14 3e
       -0.22929163 0.08670001 -0.03214493 0.14483134

layers.4.weight f4 [1, 8]
000000 38 7e 0b 3d d0 79 74 be 64 34 8c be 97 0f 57 be
       0.03405592 -0.23874593 -0.2738372 -0.21002041
000010 19 6b d5 3e 10 41 ae be 00 4c a3 bd 32 60 7d 3e
       0.41683272 -0.34034014 -0.0797348 0.24743727
